…
nfo":{"status":"ok","timestamp":1619773042961,"user_tz":-480,"elapsed":1037,"user":{"displayName":"Huiyue Wu","photoUrl":"","userId":"00881238344117032988"}},"outputId":"11bf3adc-70fa-4daa-c6e8-6faebd5e2c8f"},"source":["from torchsummary import summary\n","summary(model, input_size=(3,300,300))"],"execution_count":null,"outputs":[{"output_type":"stream","text":["----------------------------------------------------------------\n","        Layer (type)               Output Shape         Param #\n","================================================================\n","            Conv2d-1         [-1, 32, 300, 300]             896\n","              ReLU-2         [-1, 32, 300, 300]               0\n","         MaxPool2d-3         [-1, 32, 150, 150]               0\n","            Conv2d-4         [-1, 64, 150, 150]          18,496\n","              ReLU-5         [-1, 64, 150, 150]               0\n","         MaxPool2d-6           [-1, 64, 75, 75]               0\n","            Conv2d-7           [-1, 32, 75, 75]          18,464\n","              ReLU-8           [-1, 32, 75, 75]               0\n","         MaxPool2d-9           [-1, 32, 37, 37]               0\n","          Flatten-10                [-1, 43808]               0\n","           Linear-11                 [-1, 4096]     179,441,664\n","             ReLU-12                 [-1, 4096]               0\n","          Dropout-13                 [-1, 4096]               0\n","           Linear-14                 [-1, 1024]       4,195,328\n","             ReLU-15                 [-1, 1024]               0\n","          Dropout-16                 [-1, 1024]               0\n","           Linear-17                    [-1, 6]           6,150\n","       LogSoftmax-18                    [-1, 6]               0\n","================================================================\n","Total params: 183,680,998\n","Trainable params: 183,680,998\n","Non-trainable params: 0\n","----------------------------------------------------------------\n","Input size (MB): 1.03\n","Forward/backward pass size (MB): 77.69\n","Params size (MB): 700.69\n","Estimated Total Size (MB): 779.41\n","-----------------------------
…
